bite_nearby/assets/recommendation_model.tflite (tflite, 167628 bytes, 7 tensors)

arith.constant f4 [1, 32]
000000 eb 9a b3 3e c7 72 7d be fc e7 80 3e 35 f4 6a be
       0.3507913 -0.24750815 0.2517699 -0.2294472
000010 ad 41 a3 3e 54 1b 5e 3e ec b9 b3 bd 08 b6 3d 3e
       0.31886044 0.21690112 -0.08775696 0.1852647
000020 74 74 8c 3e bc 67 1a be b8 e2 e9 3e 07 9d 44 3e
       0.27432597 -0.15078634 0.45680785 0.19200526
000030 56 3d f5 3e ac 40 9b 3e 66 fa c3 3e 52 0b fb 3e
       0.47898358 0.30322778 0.38276976 0.49032074
000040 47 95 2b 3e 13 90 83 3e 4d 24 f4 bd 24 e6 c0 be
       0.16756164 0.25695857 -0.11920986 -0.37675583
000050 c6 9c 17 bd 49 6a 9e be ab 73 cf 3e b3 31 46 bd
       -0.037014745 -0.30940464 0.40517935 -0.04838724
000060 10 d6 a8 bd 6c 23 8c be 54 60 a6 3e d7 94 fb 3e
       -0.08243954 -0.27370775 0.32495368 0.49136993
000070 43 da 8f 3e 6b 1e 79 be bc 15 10 3f 3a 9b a2 3e
       0.28096208 -0.2432801 0.56283164 0.31759053

arith.constant1 f4 [32, 64]
000000 e3 e0 83 3e d3 34 9d 3e 0a dd b1 3e 77 33 79 3e
       0.25757512 0.30704364 0.34738952 0.24336039
000010 73 d6 27 3f 58 eb 86 bd 94 0b 47 be d4 59 27 3a
       0.655616 -0.06587857 -0.1943801 0.000638393
000020 80 9e b4 3e 03 3f 9d bd 0d 99 89 bc f6 a8 bb bc
       0.35277176 -0.07678034 -0.016796613 -0.022907715
000030 7b 42 15 3e c4 c0 76 3e ad 04 9a 3e 7a a5 88 3e
       0.14576142 0.24096972 0.30081692 0.2668875
000040 32 15 44 bd 39 30 bf 3e de e2 20 3e f2 86 b6 3d
       -0.047871776 0.37341478 0.15711543 0.089124575
000050 54 78 80 3e 2b 99 15 3e df 8d 5f 3e 80 98 ab 3d
       0.25091803 0.1460921 0.21831463 0.083786964
000060 ee 66 b6 3e 7d da ed bb 64 18 98 3d 48 8c 08 3d
       0.35625404 -0.007258712 0.07426527 0.033336908
000070 55 4b 6c 3d 3c 53 c0 3d 37 53 ca bd 97 2b b5 3e
       0.05768903 0.09390876 -0.09879153 0.3538482
000080 b0 d4 02 be 25 d5 be 3b 68 8d c3 3e 7e 06 6f 3d
       -0.12776446 0.0058237487 0.38193822 0.0583558
000090 6a 26 06 3e 96 f9 a3 bd 6d 04 d0 3c 2a c7 f8 3d
       0.13100591 -0.08006589 0.025392735 0.121473625
0000a0 16 6e 23 3e 4c a2 79 3e 11 f6 a7 3d c8 25 02 3d
       0.15959963 0.24378318 0.0820123 0.031774312
0000b0 6f d6 8a 3e 2e 68 b7 3e 4e 26 8f bd c3 e8 e3 3e
       0.27116725 0.3582167 -0.06989728 0.4451352
0000c0 40 b7 c2 3e f6 6f b2 bd 17 fe b4 3d a6 4b 7b 3d
       0.38030434 -0.08712761 0.08837526 0.06135144
0000d0 74 d0 f3 3d 4a fd ca bb 62 98 a0 3e b7 4c 36 be
       0.11904994 -0.006194745 0.3136626 -0.17802702
0000e0 07 7e ad bc 9f 98 99 3e a5 09 74 3e ba 51 76 3e
       -0.021178259 0.29999253 0.23831804 0.24054614
0000f0 17 98 f1 bc 60 3c 1c be a2 75 cb 3c a3 5b b3 3e
       -0.029491467 -0.15257406 0.024836365 0.3503085
000100 19 1c 45 3e 33 9c 5e be 7e cb 27 3d e3 76 4d be
       0.19249 -0.21739273 0.04096555 -0.20064883
000110 b0 98 c9 3d 9b a4 fa 3d 99 29 5f 3e 34 05 d3 3d
       0.09843576 0.12238427 0.21793212 0.10303727
000120 8e f3 dc bd b6 28 0d be cf 7f 21 3e c0 f2 e9 3d
       -0.10788642 -0.13785061 0.15771411 0.11423254
000130 c3 79 1d 3e aa d3 5c be 03 1c 54 be 1e e2 b4 bb
       0.1537848 -0.21565118 -0.2071381 -0.0055201193
000140 c3 43 08 3e 8d 25 35 3d de d6 3c be d4 d9 f6 3d
       0.13307099 0.044225264 -0.1844134 0.12053266
000150 1c 23 f6 3d 79 67 20 be 48 26 68 3e d6 64 c3 3d
       0.12018415 -0.15664472 0.22670853 0.09540717
000160 c2 1b 73 be 41 9c 07 be 28 a2 e5 3d e4 4e c1 3d
       -0.23741058 -0.132432 0.112125695 0.09438875
000170 92 bb ef bd b3 4f 81 bd 7f ec 64 be f3 af 20 be
       -0.11705698 -0.063140295 -0.22355841 -0.1569212
000180 4a e2 43 be fd c5 e7 bd 46 b3 a5 bc e4 d5 b4 3d
       -0.19129291 -0.1131706 -0.020227086 0.08829859
000190 00 c7 4c be d1 53 c3 bd 63 c1 ad bc 1b a1 62 bd
       -0.19997787 -0.09537471 -0.021210378 -0.055329423
0001a0 8c 29 41 3d 9a 2a d0 bc 40 a5 34 3e 4f 04 48 bc
       0.047158763 -0.025410939 0.17641163 -0.0122080585
0001b0 50 9b e3 3c df 23 0b 3e 21 b9 e1 3d 53 b8 ae 3c
       0.02778402 0.13587902 0.11021639 0.021328127
0001c0 6e ae 27 3a fa 4a 80 be 99 19 7a be d5 db 20 be
       0.00063965365 -0.25057203 -0.24423827 -0.1570886
0001d0 75 f9 b3 bd 32 5a 59 bc 05 67 de 3d a3 6e c3 bd
       -0.087878145 -0.013266133 0.10859493 -0.09542587
0001e0 93 c3 98 3d ed d8 0c 3e 20 8d 2f be 51 ff 5d 3e
       0.07459178 0.13754626 -0.17143679 0.21679427
0001f0 08 93 89 be 92 47 11 3e c5 40 da bd 1a 5d b2 bd
       -0.26869988 0.14187458 -0.10656885 -0.08709164
000200 ff fc ce 3d ce eb 05 3e 8b 64 48 bd 25 3f 6d 3e
       0.10106849 0.13078234 -0.04892401 0.23168619
000210 c8 db 0b 3f e2 70 aa 3d cc 80 76 3d 8b 28 be 3e
       0.54632235 0.08322312 0.060181424 0.37140307
000220 e1 0e 07 3e b0 c7 81 bd 85 72 4e 3d cc 19 c0 3e
       0.1318927 -0.063369155 0.050402183 0.3751968
000230 93 14 b0 3e be c3 a9 bb 4b 96 3c bd c7 32 64 3e
       0.34390697 -0.005180805 -0.046041768 0.22284995
000240 79 77 19 3d e5 d1 f9 3e 0a 31 96 3e 07 a8 a9 3e
       0.037467454 0.4879295 0.2933429 0.33136007
000250 2e 39 3a 3e 79 aa 27 3e f2 ad a5 3e fa c6 f1 3d
       0.18185875 0.16373624 0.32359272 0.1180553
000260 9c c1 e7 bc c5 90 4b 3a 01 bb cf bd 36 77 b2 bd
       -0.028290562 0.0007765408 -0.1014309 -0.08714144
000270 0f 43 a5 3e 08 41 bc bd a4 5d b6 bb b4 c8 89 3e
       0.32277724 -0.09192091 -0.005565362 0.26910937
000280 39 49 85 3e 91 49 1e 3e 2d f0 74 3e 55 f5 c2 3e
       0.26032427 0.15457751 0.23919745 0.38077798
000290 7a 49 43 3e 4f 62 95 3d 0d 0b c3 3d 5b 64 99 3e
       0.19070998 0.072941415 0.09523592 0.29959378
0002a0 ba 53 b4 3d 2d ce 86 3e 03 8b 83 3e f1 ba 45 3e
       0.08805032 0.26329175 0.25691995 0.19309594
0002b0 f2 cf 07 be b2 58 bc 3e 6b 85 0f 3e 80 09 da 3e
       -0.13262919 0.3678642 0.14015739 0.42585373
0002c0 5d e8 b9 3e a8 4f 53 3e f6 81 ae 3e 5d 25 aa 3e
       0.36310092 0.20635855 0.34083527 0.3323163
0002d0 1a cf 93 3e df 40 1d be 9f b6 c3 3e 76 b3 a1 bd
       0.28868943 -0.15356778 0.38225266 -0.078955576
0002e0 38 f8 1f 3e ce 8c a0 3e 09 5a 41 bd 97 18 8f ba
       0.15622032 0.31357425 -0.047205005 -0.0010917363
0002f0 71 b2 b8 bd 4e d0 86 bd af 4d 95 3e 1f c4 a1 3d
       -0.0901841 -0.065827 0.2916083 0.07898735
000300 97 2c ca 3d 69 db 27 3e e8 38 6b 3e 56 3b f5 bd
       0.09871786 0.16392292 0.22970927 -0.11974208
000310 93 ab 49 3d 04 32 b6 3d 5f 6b 9b 3c ac dd 95 bd
       0.04923589 0.088962585 0.018972097 -0.07317671
000320 04 d3 6e be c6 3a 45 be e2 5b 85 3c 25 70 aa ba
       -0.23322684 -0.19260702 0.016279165 -0.0013003392
000330 70 e8 66 bd 9c 55 22 3e 4d 03 cc 3d b0 88 82 be
       -0.056374013 0.1585297 0.09961567 -0.2549491
000340 40 35 83 be 3d a0 71 be 52 a9 be 3d 54 df 52 3e
       -0.25626564 -0.23596282 0.09309639 0.20593005
000350 3e 22 83 be c6 c1 ea ba e5 5a 39 3e d8 56 85 be
       -0.25612062 -0.0017910532 0.1810108 -0.2604282
000360 a4 00 e4 bd 98 71 33 be 0c a5 02 3e 23 63 56 3d
       -0.11132935 -0.17523801 0.12758273 0.052340638
000370 ac 87 8b be ad be 53 bd 09 37 06 3e 21 8f 36 be
       -0.27251947 -0.051695514 0.13106932 -0.17828037
000380 58 37 3f 3e 74 d0 f2 3d 10 56 3a 3e 1a 38 a1 3d
       0.18673456 0.118561655 0.18196893 0.07872029
000390 2a 41 58 be 22 c8 f5 3c 1e 2a 77 be 8c 87 e9 bd
       -0.21118608 0.030002657 -0.2413716 -0.11402807
0003a0 cb be 2e 3e d9 ef 58 3e 94 a6 59 be ec 39 c3 bd
       0.17064969 0.21185245 -0.21254951 -0.09532532
0003b0 3b 0a 7e 3d 86 5f e8 bd 8d 21 85 be ac 93 4b 3e
       0.062021475 -0.11346345 -0.2600216 0.19880551
0003c0 87 b9 4e 3e 3c 67 86 be f2 f0 0e be 9f 95 6d be
       0.2018796 -0.26250637 -0.13959101 -0.23201607
0003d0 c5 6a 24 3e 62 b7 b6 bd c2 27 ce 3d 98 bb 35 3e
       0.16056354 -0.08921696 0.10066177 0.17747343
0003e0 49 45 27 3e bd 42 d2 bd 8b b2 42 3e e6 94 2a be
       0.16335024 -0.102666356 0.19013421 -0.16658363
0003f0 cf 06 70 be f6 69 45 3d b7 cf 4a be ed 39 99 bd
       -0.23440097 0.048196755 -0.198058 -0.074817516

arith.constant2 f4 [64, 20]
000000 f4 81 63 3e 2e 1b 0c 3c 0b de 2c 3e e7 08 02 bd
       0.22217542 0.008551402 0.16881578 -0.03174677
000010 ae 0f 4e bb 96 98 83 be 72 a5 c2 3d 4f cb 72 be
       -0.0031442451 -0.2570235 0.095042124 -0.23710369
000020 52 16 11 bb 43 4c 1f 3e 36 70 48 3e a4 8b 37 bd
       -0.0022138548 0.15556435 0.19574055 -0.044810906
000030 df c3 45 bd d6 fd 27 bd 48 53 c2 3d fd f5 c4 bc
       -0.0482825 -0.04101356 0.09488541 -0.024043078
000040 16 a5 b8 bb 70 ad b2 3e 04 a0 7b 3e da 82 8c 3e
       -0.005634914 0.34897947 0.2457276 0.27443582
000050 a2 f1 26 be f2 4b 9f be d2 62 b3 3c 7f 0a a8 be
       -0.16303113 -0.3111263 0.021897707 -0.32820508
000060 ea d0 1d 3e 2d d3 0e 3c 8c 9f 96 bd 7d d5 ec 3c
       0.15411726 0.00871734 -0.0735465 0.028910393
000070 f1 90 e0 bd 0b 30 89 be fb 8d 15 3e 39 52 c4 3d
       -0.109651454 -0.26794466 0.14604943 0.09585995
000080 f5 17 0b be 50 2c 9d bc 02 da 7b be 1a cf 89 bd
       -0.13583358 -0.019186169 -0.24594882 -0.067289546
000090 1e 7f 89 3d e8 da 88 3e 2c ac a9 3d ae ac 20 3e
       0.06713699 0.26729512 0.08284792 0.15690872
0000a0 23 1e 85 3e 21 7f 78 be 65 42 92 be e5 1d 27 3e
       0.25999555 -0.24267246 -0.2856628 0.16319998
0000b0 d2 39 96 be ff 37 a1 be 25 c5 c4 3d 13 78 e4 3d
       -0.29340988 -0.31488034 0.09607915 0.11155715
0000c0 ac 54 f2 3d 43 21 53 3e 75 71 49 3d 52 60 7f be
       0.11832556 0.20618157 0.049180467 -0.24939087
0000d0 a6 96 a9 be 21 2a 73 be 5f 68 cd be cb c1 98 bd
       -0.33122748 -0.2374654 -0.4011869 -0.07458838
0000e0 b3 e7 87 3e eb 3b aa bd 20 14 42 be c1 3b 88 3d
       0.2654396 -0.0831221 -0.1895299 0.06652022
0000f0 64 83 8f bd ae 34 34 3e c0 2c 26 be 97 cd bf 3c
       -0.07007483 0.1759822 -0.16228008 0.023413463
000100 0e 51 84 3e ee 31 63 3e af 7a 89 be 7f 56 77 3e
       0.2584309 0.22187015 -0.26851413 0.2415409
000110 f3 22 77 3e ad bb c3 bd 1a 4e 4c 3e aa 46 a7 3d
       0.24134426 -0.09557281 0.19951668 0.08167775
000120 57 37 be be 0b 79 f2 b9 e9 b1 8e be e2 67 94 3e
       -0.37151596 -0.0004624802 -0.2787011 0.28985506
000130 2b 8c 80 3e c1 4e 95 3e 0e ac 32 3e 64 da e2 3d
       0.2510694 0.29161647 0.17448446 0.11076811
000140 e1 24 0b 3e fc da 15 bf 37 0f 01 bf 6a de 9a bd
       0.13588287 -0.5853727 -0.5041384 -0.07561953
000150 77 40 df be 30 40 ff be f8 1b 16 bf cd 2f 46 3d
       -0.4360387 -0.4985366 -0.58636427 0.04838543
000160 ab e0 c8 3e 84 12 9c be 8c b8 0e 3f 6d 89 27 bf
       0.39233908 -0.30482876 0.55750346 -0.6544407
000170 a0 6a 3e bf f0 37 12 bf f5 08 1f bf 4d 77 ad bd
       -0.74381447 -0.57116604 -0.6212304 -0.084700204
000180 6f 93 6b 3f 86 dc 3b 3f 7a 8e 11 3f 2d 92 2c 3f
       0.9202184 0.7338337 0.56858027 0.67410547
000190 fb 36 c3 3d 19 c0 93 3d 35 7f 0a 3e 7e 2b 96 be
       0.09531971 0.07214374 0.13525088 -0.29330057
0001a0 b8 09 9e be 9d 5e 36 be 94 97 3e 3e 96 39 35 3c
       -0.3086679 -0.1780953 0.1861251 0.011061093
0001b0 56 cb 38 be b4 0e 47 3e bb 7c 09 3e 69 eb 01 be
       -0.18046317 0.19439203 0.13426487 -0.12687458
0001c0 44 3c 24 3e ed af bf be c9 02 ce be c0 20 84 3e
       0.16038615 -0.37438908 -0.402365 0.25806236
0001d0 9b da 91 3e ce 3a e4 3d 29 e0 bb 3e c2 61 d5 bd
       0.28487095 0.111440286 0.36694458 -0.104190364
0001e0 dd 3e f7 3d ae ad 04 be c6 89 cf 3c 3c 55 b1 bd
       0.12072537 -0.12956879 0.02533425 -0.08658835
0001f0 c5 3b f8 3d 0a e1 68 bd de e0 1f 3d 9a 1d 4e bd
       0.12120775 -0.05685524 0.03903281 -0.0503212
000200 26 db 60 be 37 c5 77 3d fd b7 4f be 78 3f 68 3e
       -0.21958598 0.060490813 -0.2028503 0.22680461
000210 84 e1 e3 bd b5 f7 41 be 0e 00 69 3e a1 65 70 be
       -0.11126998 -0.18942149 0.22753927 -0.23476268
000220 20 f5 89 3d 31 79 21 be 20 f0 cb bd 1e 03 51 be
       0.06736207 -0.15768887 -0.099579096 -0.20411345
000230 19 c8 04 3e 19 8c 07 be 88 78 28 be 35 79 21 be
       0.12966956 -0.13237037 -0.16452229 -0.15768893
000240 b2 ea d7 3c c4 9d 0c be d1 d5 2a 3e 66 54 3d be
       0.026357029 -0.13732058 0.16683127 -0.18489227
000250 8a 34 90 3e 2d 7c af be 60 bc ae 3e 97 a6 8b be
       0.28165084 -0.34274426 0.34128094 -0.27275535
000260 9e ea 45 be 61 6c a9 be fb 9f e2 3d a2 c1 bf 3d
       -0.1932778 -0.330905 0.1106567 0.093631044
000270 c1 7e bf 3e 5f 8d a6 bd 8f 9d 79 bd e5 94 34 3e
       0.37401393 -0.08132433 -0.060941275 0.17634924
000280 a8 c0 11 3e 18 88 b2 3d c8 59 ea bc 27 57 1e bd
       0.14233649 0.08717364 -0.028607264 -0.038657334
000290 f8 b1 00 be f2 59 52 be cd fc 8e 3d 16 47 d2 bc
       -0.1256789 -0.20542124 0.06981812 -0.025668662
0002a0 2b 7c 90 3e 3f d3 9d be 4d 25 c4 3e 32 ab d4 be
       0.28219733 -0.3082523 0.38309708 -0.41536862
0002b0 3e a2 02 be 45 d5 82 be df e2 6d 3c b8 79 8e 3e
       -0.12757203 -0.25553337 0.014519422 0.2782724
0002c0 d3 e6 ac 3e 56 6b bd 3c 9d 2e 2b be a8 99 97 bd
       0.33769855 0.02312247 -0.16717 -0.074023545
0002d0 51 c9 4d 3e 5b 49 25 3e f7 d0 30 3d 55 e8 a3 bd
       0.20096327 0.16141264 0.043168034 -0.08003298
0002e0 7b b4 d2 bd 35 4f cb bd 48 10 87 bc 1a c7 2c 3d
       -0.1028833 -0.09927217 -0.016487256 0.042182066
0002f0 42 6f c3 3d 3c 32 42 3d f8 2e 16 be 2a 64 a1 be
       0.09542705 0.04741119 -0.14666355 -0.31521732
000300 d6 02 26 bc e6 33 01 3e 3f 27 2e be 9a 67 6a be
       -0.010132512 0.12617454 -0.17007159 -0.22891083
000310 0b 24 45 3e ce ef b8 3e 15 26 95 bd 9c 9b 74 3e
       0.1925203 0.36120456 -0.07282654 0.23887485
000320 c0 f7 9e 3e 60 e3 4e bc aa 16 a3 be b4 53 f3 3d
       0.31048393 -0.012627453 -0.3185323 0.118811995
000330 1e 3a f9 3c b9 ef 8f be 76 32 d1 3d 53 69 46 3d
       0.03042322 -0.2811258 0.10214703 0.04844029
000340 f7 f8 6d bd ee 42 47 be 5c 7d 40 3e 0a be d8 be
       -0.05809876 -0.19459125 0.18797821 -0.42332488
000350 90 2f fe be c8 51 e6 be 2b 81 89 be 4c bc 95 3e
       -0.49645662 -0.4498427 -0.2685636 0.29245222
000360 d5 b6 12 3f b1 37 bf 3e 50 34 c7 3e 90 7c ef 3e
       0.5731023 0.37347177 0.389071 0.4677472
000370 c9 3b 1f be d6 74 95 bd 68 60 82 be ca 3f 87 be
       -0.1555015 -0.07297675 -0.25464177 -0.26415855
000380 69 22 15 bd fb 1e 4e 3d a1 21 b3 bd e7 c6 40 3e
       -0.03640977 0.050322514 -0.087466486 0.18825875
000390 06 9b 9b 3d 44 cd 01 3d 0e 40 c6 3d 9b 30 7d be
       0.07597928 0.031689897 0.09680186 -0.24725573
0003a0 57 bf b7 bd d2 7d f0 3d 88 b4 b9 bd f8 8b 3b 3e
       -0.08972042 0.11742748 -0.09067637 0.18315113
0003b0 d6 ec e8 3c 67 b2 06 3e 03 d4 ad bc 2c eb f7 3d
       0.028433245 0.13153993 -0.02121926 0.12105402
0003c0 1d 92 0c be e9 4b 80 3d 48 5d 21 3e a1 f4 45 be
       -0.13727613 0.06264479 0.1575824 -0.193316
0003d0 02 8a d5 3c 5f 35 1a 3c 6e ce a2 be bb e9 d6 bd
       0.026066784 0.009412139 -0.31798118 -0.10493799
0003e0 fe f9 00 be 03 f0 bf bd 49 ef c0 3e 67 1a 60 bd
       -0.12595364 -0.093719505 0.3768256 -0.05471268
0003f0 35 81 08 be 1c 92 f5 bc aa 74 c0 3d 0d 52 2a be
       -0.13330539 -0.029976897 0.09397252 -0.16632862

functional_1/dense_1_2/BiasAdd/ReadVariableOp f4 [32]
000000 28 31 b7 3d 8c 8f 83 bc 9b cf bf 3d bc e5 93 bc
       0.08944923 -0.01605966 0.093657695 -0.018053882
000010 47 67 b2 3d c1 40 d2 3d 26 d6 d7 bc 49 16 e6 3d
       0.08711105 0.10266257 -0.026347231 0.11234719
000020 10 f7 c0 3d 38 67 1e bd 1c d8 b0 3d f8 22 d7 3d
       0.094221234 -0.038672656 0.086349696 0.10504717
000030 4e aa af 3d 47 32 c7 3d 67 4a b0 3d b6 ef ab 3d
       0.08577405 0.097263865 0.08607941 0.083953306
000040 ee 2c ef 3d d1 bf dc 3d 78 da 0e bd ae 5c a6 bc
       0.116784915 0.107787736 -0.034876317 -0.020307865
000050 a6 ad bb bc 5b c6 8d bc 64 54 c3 3d ff 9b 9f bc
       -0.02290995 -0.017306497 0.095375806 -0.019483564
000060 2f a9 53 bc c1 e4 71 bc 1e be b3 3d 95 be c1 3d
       -0.0129187545 -0.014764012 0.08776496 0.09460179
000070 85 50 bf 3d 30 95 81 bc 20 3a db 3d b0 18 b4 3d
       0.0934153 -0.015818208 0.10704446 0.08793771

functional_1/dense_1/BiasAdd/ReadVariableOp f4 [64]
000000 68 a2 06 3e 2b 1c e6 3d ef 21 e6 3d e5 6d de 3d
       0.1314789 0.11235841 0.11236941 0.108608045
000010 11 8d ea 3e 07 e7 e9 3d 05 40 15 bd d6 d3 01 3e
       0.4581075 0.11421018 -0.036438007 0.12678465
000020 77 e6 fd 3d 8c 83 ec 3d b4 34 9f 3d 69 25 e3 3d
       0.12397473 0.11548528 0.07773724 0.1109112
000030 14 7b f3 3d dc 00 07 3e 0b 6b e8 3d a7 04 40 3e
       0.1188871 0.13183922 0.11348542 0.18751775
000040 fd 25 fb 3d 8c a9 5f 3e 93 03 09 3e fe e6 ea 3d
       0.12263105 0.21842021 0.1338027 0.114698395
000050 ef 17 f4 3d 77 88 f9 3d 1a 1b e7 3d d8 39 df 3d
       0.119186275 0.12184232 0.11284466 0.10899705
000060 16 a2 ee 3d f1 14 02 3e 17 9a 1c 3c c0 9b 7d 3d
       0.11652009 0.12703301 0.009558222 0.061916113
000070 24 c1 ec 3d fe 59 f7 3d 68 f1 f2 3d 66 ab 05 3e
       0.11560276 0.120777115 0.11862451 0.13053665
000080 98 b6 0e bd dd 16 01 3e 50 48 be 3d 1d 70 16 3e
       -0.034842104 0.12606378 0.09291136 0.14691205
000090 49 ff ef 3d 4e 84 f7 bc 2a a0 1b bd f3 ad 08 3e
       0.11718614 -0.030214455 -0.03799454 0.13347606
0000a0 3f 8b 01 3e eb 84 02 3e 62 22 e5 3d 4d 87 fb 3d
       0.12650774 0.12746017 0.111881986 0.12281666
0000b0 4b f3 03 bd b8 6f 10 3e 39 65 03 3e 68 e7 11 3e
       -0.032214444 0.14105117 0.12831582 0.1424843
0000c0 e9 26 e6 3d 83 a5 12 bd b3 d2 18 3e d0 00 05 3e
       0.1123789 -0.035802376 0.14924125 0.12988591
0000d0 e5 50 0b 3e 40 cd 3b 3b fc 83 f0 3d 4d 97 11 bd
       0.13605078 0.0028656274 0.11743924 -0.035544682
0000e0 a2 f4 f9 3d ea 6c 08 3e 36 f7 0c 3e 27 f7 1b 3e
       0.12204863 0.13322797 0.13766178 0.15231
0000f0 ee 0c ef 3d aa 2b 14 bd 09 95 f6 3d 58 02 f4 3d
       0.11672388 -0.036174454 0.12040145 0.119145095

functional_1/embedding_1_1/GatherV2/ReadVariableOp f4 [2219, 10]
000000 a0 70 ce 3d ff a8 d6 bc 40 7c 64 bd 6e 96 b0 bc
       0.10080075 -0.02620363 -0.055782557 -0.021556105
000010 65 04 bf bd 39 09 43 b9 5f 48 be 3d 5a e8 01 3d
       -0.0932701 -0.00018600085 0.092911474 0.03171573
000020 e1 60 a9 3b 0e 28 80 3d f9 68 8c 3c 28 b8 de bd
       0.0051690196 0.0625764 0.017139899 -0.10874969
000030 e1 85 01 bd 9e 2d 09 bd 2c 9f b4 bd a6 8b 87 bd
       -0.031621817 -0.03349077 -0.08819422 -0.06618433
000040 87 04 8c 3d b2 a9 af 3d 05 49 bf 3d d9 79 56 3d
       0.06836801 0.08577289 0.09340099 0.052362297
000050 e5 7b 7f 3d 70 1c a0 bd 9a 39 6a bd 18 1e 8c bc
       0.062374014 -0.07817924 -0.05718384 -0.017104194
000060 9a eb 83 bd 5c 7b 51 3d 2d dc ec 3c 08 e2 78 3d
       -0.06441422 0.051143035 0.028913582 0.060762435
000070 cb b1 c3 3d 43 45 4a 3d f3 1f b2 3d 45 9f 50 bd
       0.09555396 0.04938246 0.086975 -0.05093314
000080 72 1e 0e bd 9d f8 9e bc 44 04 0a bb b9 5c 8c bc
       -0.034697004 -0.019405657 -0.0021059671 -0.017134057
000090 23 a3 cc 3d b2 2f c9 3d 9d eb 45 3d b0 85 03 3d
       0.09992053 0.0982355 0.0483204 0.032109916
0000a0 53 a8 7e 3d dd 07 a4 bd 6c 35 7c bd b2 47 b1 bb
       0.062172245 -0.08009312 -0.061574385 -0.005410158
0000b0 21 bb 99 bd 56 94 0b 3d c2 9c 88 3d 3e f8 9d 3d
       -0.07506395 0.03407701 0.06670524 0.07713364
0000c0 ea d5 82 3d e1 2d 1f 3d 1a 70 99 3d 5b 1d ac bd
       0.06388457 0.038862113 0.07492085 -0.084040366
0000d0 59 11 30 bd 88 fb dc bc a8 8c 11 bd a5 4b a0 bc
       -0.042985294 -0.026975408 -0.03553453 -0.01956732
0000e0 6d 84 d6 3d d8 34 2a 3d c5 27 f3 bc db 88 9e 3d
       0.10474477 0.041554302 -0.02968205 0.07740947
0000f0 b9 43 79 3c 48 8e bd bd 0a 61 6c bd e3 4e ab bd
       0.0152139 -0.092556536 -0.05770973 -0.08364656
000100 98 38 20 bd e5 b0 26 bd 10 18 8b 3d 5c 86 ca 3d
       -0.039116472 -0.040696044 0.06791699 0.09888908
000110 6a a9 86 3d cd 75 35 3d 7a 95 8c 3d 71 80 4b bd
       0.06575282 0.044301797 0.06864448 -0.04968304
000120 55 9e df bd 07 cb ce bd 7d 43 6c bd 61 f2 0c bc
       -0.10918871 -0.10097318 -0.05768155 -0.0086027095
000130 f8 ae 2e 3d 88 b8 dc 3a 4f c4 41 3d 49 31 c8 3c
       0.042647332 0.0016839663 0.047306355 0.024437563
000140 1d 96 29 3d dd 30 2d bd 42 4d b8 bd 2a ae a6 bc
       0.041402925 -0.042282928 -0.08999111 -0.02034672
000150 ed 55 4e bd 75 de a8 3c 59 1a f5 3c b3 3c ab 3d
       -0.050374914 0.020613888 0.02991979 0.08361187
000160 c7 ce d7 3d 0e 15 52 3d 07 b0 2e 3d 93 2c fd bc
       0.105374865 0.05128961 0.04264834 -0.030905044
000170 03 9f bc bc 43 0b b9 bd 44 05 a4 bd 49 a5 5f bd
       -0.023025041 -0.09035351 -0.08008817 -0.054600988
000180 ea ce 45 3d a0 a2 b5 3d 98 9b b2 3c 48 5e c2 3d
       0.04829303 0.08868909 0.021802709 0.09490639
000190 91 95 1b 3d db e4 1e bd d2 67 a7 bd f3 b1 a3 bd
       0.037984435 -0.038792472 -0.08174099 -0.079929255
0001a0 0c 45 4b bc 70 8c d7 3c ee 21 14 3d 41 b0 73 3d
       -0.012406599 0.026312083 0.03616517 0.05949426
0001b0 e7 e3 6c 3d 73 6b 95 3d 5d d8 d7 3b d7 a8 cf bd
       0.057834532 0.07295885 0.006587072 -0.101396255
0001c0 9d 23 86 bd b0 fe 89 bd 14 80 e2 bc 55 b3 52 bd
       -0.065497614 -0.06738031 -0.027648963 -0.051440556
0001d0 34 3b fa 3d 50 94 c0 3d 86 0a 66 3c 9d a6 06 3d
       0.12218323 0.09403288 0.014040595 0.03287374
0001e0 f3 ff 6b 3d f4 13 86 bd a4 82 6a bd 2e 79 70 bd
       0.05761714 -0.065467745 -0.057253495 -0.058709316
0001f0 35 8a a5 bd d4 5b 80 bb 8d d8 c5 3d 57 7d c7 3d
       -0.080830015 -0.0039171968 0.096604444 0.097407036
000200 94 43 09 3b d3 e9 3c 3d 32 c9 aa 3d 77 fd b5 bc
       0.002094482 0.04612143 0.08339156 -0.022215588
000210 52 20 ee bc 5e 28 72 bd 4d f4 a2 bc 61 2e 5e bd
       -0.029068146 -0.05912053 -0.019891882 -0.05424345
000220 fe a9 55 3d 69 9d 8b 3d fb be a9 3d ae cd c2 3d
       0.05216407 0.06817133 0.0828838 0.095118865
000230 6e bd a0 3c 40 01 15 bd 0c b8 bf bd e7 85 30 bc
       0.019621577 -0.036378145 -0.09361276 -0.010774112
000240 8e 0d b8 bd 02 af 88 bc 3b a1 b8 3d 48 7f be 3d
       -0.0898696 -0.016685013 0.09015127 0.09301621
000250 40 27 1d bb a3 3a 1c 3d 4e 64 49 3d a9 a6 ff ba
       -0.0023979694 0.038141858 0.049167924 -0.0019504625
000260 e6 a6 a1 bd d1 21 88 bd 9e 9b 90 bd 8c 9f 7d bc
       -0.078931615 -0.06647075 -0.070609316 -0.0154799335
000270 20 c4 bf 3d fa 98 07 3d 70 31 a2 3d 4e c6 c9 3d
       0.0936358 0.033104874 0.07919586 0.09852277
000280 f5 18 88 3d 05 d7 b8 bd 14 3a 66 bc 6b 0b a9 bd
       0.06645385 -0.09025387 -0.014051933 -0.08254131
000290 7c d6 58 bd 13 76 58 bd 0e 45 eb 3c e6 b6 95 3d
       -0.052938923 -0.05284698 0.028719451 0.07310276
0002a0 48 61 a6 3d 19 fa f7 3c c8 c4 6a 3d cb ba e8 bd
       0.08124024 0.030270623 0.05731657 -0.11363753
0002b0 d3 d8 40 bd bc 16 9e bd ae d8 67 bd 58 5f 0e 3d
       -0.04708178 -0.0771918 -0.056603126 0.034758896
0002c0 2d a4 68 3d 2e d0 0c 3d 8f 0c 55 3d 51 af f0 3c
       0.056797195 0.034378223 0.05201393 0.029380472
0002d0 f6 9f 6e 3d d3 41 90 bc f4 31 d5 bd d6 67 5b bd
       0.05825802 -0.017609512 -0.104099184 -0.053565823
0002e0 9c 48 7f bd 9f 7f bf bc 57 f2 3c 3d 42 09 a5 3d
       -0.062325105 -0.023376284 0.04612955 0.080584064
0002f0 ce 4c 5f 3d a9 5a 44 3d b9 48 a8 3d 29 a9 8d bd
       0.054516606 0.047938023 0.08216996 -0.0691703
000300 2a 8d 84 bc 0e 45 9b bd 50 9d e3 bc da 3c 67 3b
       -0.016180594 -0.075815305 -0.027784973 0.0035284073
000310 da 42 1d 3d 85 36 0f 3d f0 1b 52 3d 62 60 e3 3d
       0.038393833 0.034964103 0.051296175 0.11102368
000320 4f 2e 95 3d eb 84 8f bc 92 0b 81 bd 78 fe 60 bd
       0.07284223 -0.017519435 -0.06301035 -0.05493018
000330 a7 4c 18 bd ad 6e b0 3d 9f 64 aa 3d 61 5d 01 3d
       -0.037182476 0.0861486 0.08319973 0.031583194
000340 2b 94 63 3d 5c 9b 46 3d f4 2b f4 3c 38 ea 59 bb
       0.055561226 0.048488006 0.029806115 -0.0033251178
000350 30 40 37 bd ac 57 45 bd c7 00 9c bd 2e 8a 58 bd
       -0.04473895 -0.048179314 -0.07617336 -0.052866153
000360 b8 97 89 3d cf ea ca 3d 5a ff d6 ba 87 ef dc 3d
       0.06718391 0.099080674 -0.0016403005 0.10787874
000370 3c 14 b2 3d 8e 7c f6 bc 6d ef a3 bc dd e9 18 bd
       0.08695266 -0.03008869 -0.020011628 -0.037332404
000380 3f a6 44 bd 0c b7 3b 3d 96 d5 67 3d 03 e1 cd 3c
       -0.048010107 0.045828864 0.056600176 0.025131708
000390 9c 6c cf 3d b2 3c e1 3d ec 8d a5 3d bf a7 11 bc
       0.101281375 0.10997905 0.0808371 -0.008890091
0003a0 6d f6 9b bd 88 dc 4f bd 46 d6 9c bd 71 1e 46 3d
       -0.07615361 -0.050747424 -0.07658057 0.048368875
0003b0 1b ac 5c 3d 4c f9 bf 3d f2 15 5f 3d 06 07 58 3d
       0.05387507 0.093737215 0.054464288 0.052741073
0003c0 01 97 b3 3d fd 70 a3 bd f1 66 80 bd 25 e8 25 ba
       0.08769036 -0.07980535 -0.062696345 -0.0006328843
0003d0 ed cc 1a bd 00 0f 8f 3d 5c a9 19 3d e2 e5 be 3d
       -0.03779309 0.06985283 0.03751503 0.093211904
0003e0 76 ae 89 3d 77 e2 36 3d 74 ee de 3c 50 01 8b bd
       0.06722729 0.044649567 0.027213313 -0.0678736
0003f0 05 57 56 bd 8c 86 26 bd f1 7b 7c bd 3e 80 37 3d
       -0.052329082 -0.040655658 -0.061641637 0.044800036

functional_1/embedding_2/GatherV2/ReadVariableOp f4 [1500, 10]
000000 42 5d 28 3d d3 a0 9c 3c 12 b2 af bc c3 aa 95 ba
       0.041104563 0.019119656 -0.021447215 -0.0011418689
000010 26 1e 94 bd d3 e3 b5 bc ab 9f 0b bc 71 4f 97 3c
       -0.07232313 -0.022203362 -0.0085219545 0.018470498
000020 02 72 80 3d ff 00 16 bd bd 72 d8 bc ad 4d 9d 3c
       0.06271745 -0.036622044 -0.026421899 0.019202078
000030 03 23 4c bd a2 0d c7 bc 42 f7 e1 bb 82 7c 27 bd
       -0.049838077 -0.024298493 -0.0068959305 -0.040890224
000040 47 17 a7 3c 09 97 39 3d 95 02 7c 3d ad c7 7a bc
       0.020396842 0.045310054 0.0615259 -0.0153063955
000050 88 4a 16 bc 4e 30 16 bd d3 db 20 bc c6 45 32 bd
       -0.009173043 -0.03666716 -0.009818035 -0.043523572
000060 2a 49 a7 bd 2e 38 b6 bb 8b 67 18 bc c8 1d 82 3d
       -0.08168252 -0.0055608964 -0.00930203 0.063533366
000070 eb 63 0d bb 64 08 bf bc 87 f2 2c 3d 78 ae 70 bd
       -0.0021574448 -0.02331943 0.04222348 -0.058760136
000080 70 db 19 3c 81 66 80 bc 68 32 46 bd 63 49 21 bd
       0.009390697 -0.015673878 -0.048387915 -0.039376628
000090 02 8a 95 3c 61 e5 b1 bb af 43 45 3c 7d 27 27 bd
       0.018254284 -0.0054289554 0.012040063 -0.040809143
0000a0 65 b8 4a 3d 0d b0 98 bd 7e b3 3d 3c ea d1 37 bd
       0.04949226 -0.07455454 0.011578439 -0.044877924
0000b0 1c d4 eb bc d6 98 2e 3c 1c ff 8a bd b5 62 07 3d
       -0.028787665 0.010656556 -0.067869395 0.03305312
0000c0 ad 7b 11 3b f6 8e 9d bd 88 58 42 3c 56 87 d6 bc
       0.002219896 -0.07693283 0.011861928 -0.02618758
0000d0 48 43 50 bd d7 75 b4 bc 4b e3 84 bc b4 32 e7 3b
       -0.050845414 -0.022028847 -0.016221663 0.007055605
0000e0 3d 20 06 bd 72 12 64 3d fb bf 1e 3c db 95 ec bc
       -0.03274559 0.055681653 0.009689326 -0.02888005
0000f0 1f 82 2b 3d 89 12 68 bd 7f fa 3c bd f7 51 3f bd
       0.04187214 -0.0566583 -0.04613733 -0.046709027
000100 80 54 2e bc e7 ab ca 3b 2f e4 61 bd cc 36 6f bc
       -0.010640264 0.006185043 -0.055149253 -0.014600467
000110 ee 66 bd 3c aa 3b 8c 3c 14 8a 7b 3d 7d b7 63 bd
       0.02312037 0.017118294 0.06141098 -0.05559491
000120 aa 5a a1 bd aa f3 1f bd 7d 4e 37 bd 43 ef 1b 3c
       -0.07878621 -0.039050736 -0.044752587 0.009517494
000130 84 29 f9 bc ab 3f ea 3b e5 37 f9 3b bf ab 4b bd
       -0.030415304 0.007148703 0.00760554 -0.049724337
000140 3c c9 dc bc 37 64 0a bc 04 ad 13 bd 09 cb 11 bd
       -0.026951425 -0.008446745 -0.036053672 -0.03559402
000150 71 e4 3d bd ef c4 c9 bc 5c 53 64 3b e9 2a 80 3d
       -0.046360437 -0.024630038 0.0034839725 0.062581845
000160 1e 2a a4 3c ec ad f1 3c 16 52 1e bb d0 c5 83 bd
       0.020039614 0.029501878 -0.0024157814 -0.06434214
000170 f6 1e 50 bd 86 fd 7c bd 7f 9c 96 bd 18 07 b8 ba
       -0.050810777 -0.061765216 -0.07354068 -0.00140402
000180 0f f3 30 3c 5b 4e 8e 3c 0d d4 c0 3d 26 da 04 bd
       0.010800137 0.017371347 0.094154455 -0.032434605
000190 a1 b5 0e 3d b1 46 0d bd ec 00 a3 3c b1 ca 14 bd
       0.034841184 -0.034491245 0.0198979 -0.036326114
0001a0 ee 72 f8 bc 18 64 3f 3b 50 a5 24 3d 71 c6 72 3d
       -0.03032824 0.0029203948 0.040196717 0.05927128
0001b0 98 49 ea bb e3 22 28 bc 99 2e 50 3d c6 85 59 ba
       -0.0071498863 -0.010262224 0.05082569 -0.0008297827
0001c0 31 0e d9 bb fa f9 1e bc 63 a1 4a bc a4 8e 36 bd
       -0.006624006 -0.009703154 -0.012367579 -0.044569626
0001d0 01 13 78 bd e2 e5 57 3d b8 f7 2d 3d 13 06 9d bc
       -0.060565 0.052709468 0.04247257 -0.019167935
0001e0 95 6f 27 3c 84 a3 cf bb 9a be 79 3c 22 1e 68 bd
       0.010219474 -0.0063366313 0.015243197 -0.056669362
0001f0 9b cb 71 bd aa 4c 83 bc 41 00 80 bd b7 ae 9d 3c
       -0.059032064 -0.016027767 -0.062500484 0.01924835
000200 7d 48 d5 3c b5 25 72 bd 05 f9 38 bd 05 96 84 bd
       0.026035542 -0.05911799 -0.04515936 -0.064739265
000210 68 b8 c1 bc bf bd 78 bd b2 7c b8 3c ab 5f 76 bd
       -0.023647502 -0.06072783 0.022520397 -0.06014983
000220 33 03 3b bd cf a7 f6 3b 12 b8 e0 bc e2 93 db bc
       -0.045657348 0.0075273286 -0.027431522 -0.026803914
000230 61 a2 9f 3d c3 d4 19 bd c1 33 8f 3c 4a 18 cf ba
       0.07794643 -0.03755642 0.017480733 -0.0015800085
000240 9b 55 2a bd f5 06 d1 bc 5f 3c 87 bd b7 1b d5 3b
       -0.041585546 -0.025516013 -0.06603312 0.006503548
000250 c5 dd 51 3c 89 57 c0 3c 29 0f 19 3c 58 f2 e7 3c
       0.012809222 0.02347924 0.009341993 0.0283138
000260 30 9e 36 bb ca d4 56 3c 83 61 fe bc 98 ab ea bc
       -0.0027865283 0.013112256 -0.031052357 -0.028646275
000270 8a b1 87 bc 7b db 84 3c 51 46 a7 3c 11 7e 59 bc
       -0.01656415 0.016217938 0.020419272 -0.0132746855
000280 7f 98 03 3d 87 c3 22 bd e7 8c 42 bd 56 6a 3b 3d
       0.032127853 -0.03973725 -0.047497656 0.045755707
000290 8b 95 37 bd 3a 51 9b 3b 4d 45 05 bd 46 2d bb 3c
       -0.04482035 0.0047399076 -0.032536794 0.022848736
0002a0 2f 10 8f 3d 30 fd 02 3d bf 3b 6e 3d c5 85 f4 bb
       0.06985509 0.03197974 0.058162447 -0.0074622356
0002b0 da a8 2e bc cc a4 35 bd 3b e6 d4 3c 2d 24 41 bd
       -0.010660375 -0.044346616 0.025988689 -0.04715364
0002c0 74 8e 1c 3c ca 64 60 3d 8f 14 16 3d 88 c1 a9 bc
       0.009555448 0.05478362 0.0366407 -0.020722166
0002d0 e5 91 51 bd 47 3b 87 bd 71 e8 98 bc e0 39 77 3c
       -0.051164526 -0.06603103 -0.018665524 0.015089482
0002e0 6e 1f 91 bd 3a bd 28 3c 85 c7 48 bd fc d1 4b 3d
       -0.07086073 0.010299021 -0.0490184 0.049760804
0002f0 1a 59 44 39 24 89 ea bb e3 3a f5 3c 1f 63 ea bb
       0.0001872521 -0.0071574617 0.029935306 -0.0071529294
000300 25 8f d1 bc 83 8e 87 3a 3e 0f 50 bd f4 3b ef bc
       -0.025580952 0.0010342154 -0.050795786 -0.029203393
000310 b4 d8 b1 bc 88 65 55 3c 3f 19 06 3c 50 a6 36 bd
       -0.021709777 0.013024695 0.00818473 -0.0445922
000320 b1 3f f1 bc 42 e1 6d bd 00 bb 48 bd 52 c4 13 ba
       -0.029449316 -0.05807615 -0.049006462 -0.0005636859
000330 06 d9 86 3c 72 ec e7 3c 86 b0 2e bd 1a 59 3c 3d
       0.016460907 0.028310988 -0.042648815 0.04598341
000340 ab e9 52 bc 98 bb 65 bd bc 60 3a 3d 12 2c 95 bc
       -0.012873094 -0.056087106 0.04550241 -0.01820949
000350 aa c7 d0 bc 76 ff 54 bc 01 2a 96 3c 6c c5 40 bd
       -0.025485832 -0.01300036 0.018330576 -0.047063276
000360 ea cd 3e bc 51 f1 d8 39 b3 1e 40 3d 71 1b bd bb
       -0.011645773 0.00041378525 0.046904277 -0.0057710935
000370 1a d7 33 3d 63 b2 27 bd 5e fa 14 bd 9e 24 a3 bc
       0.04390631 -0.040941607 -0.03637158 -0.019914921
000380 43 9a 19 bd b9 2c 16 3c 6e 67 04 bd c5 a2 42 bd
       -0.03750063 0.009165936 -0.0323252 -0.04751851
000390 c4 a7 72 3b 23 06 dd bc 70 a5 be 3c f7 31 a1 bd
       0.0037026266 -0.026980465 0.023272246 -0.07870858
0003a0 bb 7f ef bc 0d 3e 5b bc 58 ef 11 bd bb 97 41 3c
       -0.029235711 -0.013381493 -0.035628647 0.0118159605
0003b0 20 c9 96 bd d1 9f f6 3c fc d6 88 3b e2 37 c2 bc
       -0.0736258 0.030105503 0.0041760188 -0.023708288
0003c0 bb 6c c8 3c d2 06 15 3c 88 03 97 bc 9b ea 97 bc
       0.02446591 0.009095864 -0.018434301 -0.018544486
0003d0 b1 f8 41 bd 7d dd 23 b8 4b da 90 bd 4b c8 8c bc
       -0.04735631 -3.9068505e-05 -0.07072886 -0.01718535
0003e0 22 55 c5 38 32 00 31 3c bb 4f bf bc 7a 74 3e bd
       9.409549e-05 0.010803269 -0.023353448 -0.0464978
0003f0 7e 4f 8f bc 9a d3 0e bd 23 7e 4e 3c 6e 44 89 bc
       -0.01749396 -0.034869768 0.0126033155 -0.016756263
